scalar complete
gettting_matrix_format_data
part-1 training completed
gettting_matrix_format_data
part-2 training completed
(300690, 15) shapes
(300690, 11, 64)
done
_________________________________________________________________
Layer (type)                 Output Shape              Param #   
=================================================================
dense_1 (Dense)              (None, 11, 64)            4160      
_________________________________________________________________
flatten_1 (Flatten)          (None, 704)               0         
_________________________________________________________________
dropout_1 (Dropout)          (None, 704)               0         
_________________________________________________________________
dense_2 (Dense)              (None, 300)               211500    
_________________________________________________________________
dropout_2 (Dropout)          (None, 300)               0         
_________________________________________________________________
dense_3 (Dense)              (None, 300)               90300     
_________________________________________________________________
dropout_3 (Dropout)          (None, 300)               0         
_________________________________________________________________
dense_4 (Dense)              (None, 15)                4515      
=================================================================
Total params: 310,475
Trainable params: 310,475
Non-trainable params: 0
_________________________________________________________________
Train on 300690 samples, validate on 300690 samples
Epoch 1/150

   500/300690 [..............................] - ETA: 4:24 - loss: 2.9487 - acc: 0.0720
  1500/300690 [..............................] - ETA: 1:39 - loss: 2.6172 - acc: 0.1560
…
